…
)</span><br><span class="line"></span><br><span class="line">generator = keras.models.Model(generator_input, x)</span><br><span class="line">generator.summary()</span><br></pre></td></tr></table></figure><pre><code>Model: &quot;functional_1&quot;_________________________________________________________________Layer (type)                 Output Shape              Param #   =================================================================input_1 (InputLayer)         [(None, 32)]              0         _________________________________________________________________dense (Dense)                (None, 32768)             1081344   _________________________________________________________________leaky_re_lu (LeakyReLU)      (None, 32768)             0         _________________________________________________________________reshape (Reshape)            (None, 16, 16, 128)       0         _________________________________________________________________conv2d (Conv2D)              (None, 16, 16, 256)       819456    _________________________________________________________________leaky_re_lu_1 (LeakyReLU)    (None, 16, 16, 256)       0         _________________________________________________________________conv2d_transpose (Conv2DTran (None, 32, 32, 256)       1048832   _________________________________________________________________leaky_re_lu_2 (LeakyReLU)    (None, 32, 32, 256)       0         _________________________________________________________________conv2d_1 (Conv2D)            (None, 32, 32, 256)       1638656   _________________________________________________________________leaky_re_lu_3 (LeakyReLU)    (None, 32, 32, 256)       0         _________________________________________________________________conv2d_2 (Conv2D)            (None, 32, 32, 256)       1638656   _________________________________________________________________leaky_re_lu_4 (LeakyReLU)    (None, 32, 32, 256)       0         _________________________________________________________________conv2d_3 (Conv2D)            (None, 32, 32, 3)         37635     =================================================================Total params: 6,264,579Trainable params: 6,264,579Non-trainable params: 0_________________________________________________________________</code></pre><h4 id="判别器的实现"><a href="#判别器的实现" class="headerlink" title="判别器的实现"></a>判别器的实现</h4><p>接下来，开发 discriminator 模型，输入一张图像(真实的或合成的)，将其划分为「真」（来自训练集的真实图像）或「假」（生成器画的图像）。</p><figure class="
…
e</span>(optimizer=discriminator_optimizer,</span><br><span class="line">                      loss=<span class="string">&#x27;binary_crossentropy&#x27;</span>)</span><br></pre></td></tr></table></figure><pre><code>Model: &quot;functional_3&quot;_________________________________________________________________Layer (type)                 Output Shape              Param #   =================================================================input_2 (InputLayer)         [(None, 32, 32, 3)]       0         _________________________________________________________________conv2d_4 (Conv2D)            (None, 30, 30, 128)       3584      _________________________________________________________________leaky_re_lu_5 (LeakyReLU)    (None, 30, 30, 128)       0         _________________________________________________________________conv2d_5 (Conv2D)            (None, 14, 14, 128)       262272    _________________________________________________________________leaky_re_lu_6 (LeakyReLU)    (None, 14, 14, 128)       0         _________________________________________________________________conv2d_6 (Conv2D)            (None, 6, 6, 128)         262272    _________________________________________________________________leaky_re_lu_7 (LeakyReLU)    (None, 6, 6, 128)         0         _________________________________________________________________conv2d_7 (Conv2D)            (None, 2, 2, 128)         262272    _________________________________________________________________leaky_re_lu_8 (LeakyReLU)    (None, 2, 2, 128)         0         _________________________________________________________________flatten (Flatten)            (None, 512)               0         _________________________________________________________________dropout (Dropout)            (None, 512)               0         _________________________________________________________________dense_1 (Dense)              (None, 1)                 513       =================================================================Total params: 790,913Trainable params: 790,913Non-trainable params: 0_________________________________________________________________</code></pre><h4 id="对抗网络"><a href="#对抗网络" class="headerlink" title="对抗网络"></a>对抗网络</h4><p>最后，设置 GAN，将生成器和判别器连接在一起，将潜在空间的点转换为一个真或假的分类判断。</p><p>这个模型训练时，需要将「判别器」冻结(使之不可被训练)，只让「生成器」向「提高欺骗判别器的能力」的方向
…
ata to be passed to custom_variational_layer_1.Model: &quot;functional_7&quot;__________________________________________________________________________________________________Layer (type)                    Output Shape         Param #     Connected to                     ==================================================================================================input_1 (InputLayer)            [(None, 28, 28, 1)]  0                                            __________________________________________________________________________________________________conv2d_5 (Conv2D)               (None, 28, 28, 32)   320         input_1[0][0]                    __________________________________________________________________________________________________conv2d_6 (Conv2D)               (None, 14, 14, 64)   18496       conv2d_5[0][0]                   __________________________________________________________________________________________________conv2d_7 (Conv2D)               (None, 14, 14, 64)   36928       conv2d_6[0][0]                   __________________________________________________________________________________________________conv2d_8 (Conv2D)               (None, 14, 14, 64)   36928       conv2d_7[0][0]                   __________________________________________________________________________________________________flatten_1 (Flatten)             (None, 12544)        0           conv2d_8[0][0]                   __________________________________________________________________________________________________dense_4 (Dense)                 (None, 32)           401440      flatten_1[0][0]                  __________________________________________________________________________________________________dense_5 (Dense)                 (None, 2)            66          dense_4[0][0]                    __________________________________________________________________________________________________dense_6 (Dense)                 (None, 2)            66          dense_4[0][0]                    __________________________________________________________________________________________________lambda_1 (Lambda)               (None, 2)            0           dense_5[0][0]                                                                                     dense_6[0][0]                    __________________________________________________________________________________________________functional_5 (Functional)       (None, 28, 28, 1)    56385       lambda_1[0][0]                   __________________________________________________________________________________________________custom_variational_layer_1 (Cus (None, 28, 28, 1)    0           input_1[0][0]                                                                                     functional_5[0][0]               ==================================================================================================Total params: 550,629Trainable params: 550,629Non-trainable params: 0___________________________________________________________________________________________
…
="built_in">compile</span>(optimizer=<span class="string">&#x27;rmsprop&#x27;</span>,</span><br><span class="line">              loss=<span class="string">&#x27;binary_crossentropy&#x27;</span>,</span><br><span class="line">              metrics=[<span class="string">&#x27;acc&#x27;</span>])</span><br></pre></td></tr></table></figure><pre><code>Model: &quot;sequential&quot;_________________________________________________________________Layer (type)                 Output Shape              Param #   =================================================================embed (Embedding)            (None, 500, 128)          256000    _________________________________________________________________conv1d (Conv1D)              (None, 494, 32)           28704     _________________________________________________________________max_pooling1d (MaxPooling1D) (None, 98, 32)            0         _________________________________________________________________conv1d_1 (Conv1D)            (None, 92, 32)            7200      _________________________________________________________________global_max_pooling1d (Global (None, 32)                0         _________________________________________________________________dense (Dense)                (None, 1)                 33        =================================================================Total params: 291,937Trainable params: 291,937Non-trainable params: 0_________________________________________________________________</code></pre><p>要使用 TensorBoard，在开始训练之前还需要做一些准备。首先，为 TensorBoard 需要的日志文件创建一个目录，并开启 TensorBoard 的服务。在 shell 里：</p><figure class="highlight shell"><table><tr><td class="gutter"><pre><span class="
…
Pooling1D)  (None, None, 256)    0           conv1d_2[0][0]                   __________________________________________________________________________________________________conv1d_3 (Conv1D)               (None, None, 256)    327936      max_pooling1d_1[0][0]            __________________________________________________________________________________________________conv1d_4 (Conv1D)               (None, None, 256)    327936      conv1d_3[0][0]                   __________________________________________________________________________________________________global_max_pooling1d (GlobalMax (None, 256)          0           conv1d_4[0][0]                   __________________________________________________________________________________________________dense_14 (Dense)                (None, 128)          32896       global_max_pooling1d[0][0]       __________________________________________________________________________________________________age (Dense)                     (None, 1)            129         dense_14[0][0]                   __________________________________________________________________________________________________income (Dense)                  (None, 10)           1290        dense_14[0][0]                   __________________________________________________________________________________________________gender (Dense)                  (None, 1)            129         dense_14[0][0]                   ==================================================================================================Total params: 45,982,476Trainable params: 45,982,476Non-trainable params: 0__________________________________________________________________________________________________</code></pre><p><strong>多头模型的编译</strong></p><p>在编译这种模型的时候，由于是有不同的目标，所以要注意需要对网络的各个头指定不同的
…
er">10</span>,</span><br><span class="line">                    batch_size=<span class="number">128</span>,</span><br><span class="line">                    validation_split=<span class="number">0.2</span>)</span><br><span class="line"></span><br><span class="line">plot_acc_and_loss(history)</span><br></pre></td></tr></table></figure><pre><code>Model: &quot;sequential&quot;_________________________________________________________________Layer (type)                 Output Shape              Param #   =================================================================embedding (Embedding)        (None, 500, 128)          1280000   _________________________________________________________________conv1d (Conv1D)              (None, 494, 32)           28704     _________________________________________________________________max_pooling1d (MaxPooling1D) (None, 98, 32)            0         _________________________________________________________________conv1d_1 (Conv1D)            (None, 92, 32)            7200      _________________________________________________________________global_max_pooling1d (Global (None, 32)                0         _________________________________________________________________dense (Dense)                (None, 1)                 33        =================================================================Total params: 1,315,937Trainable params: 1,315,937Non-trainable params: 0_________________________________________________________________Epoch 1/10157/157 [==============================] - 30s 188ms/step - loss: 0.9049 - acc: 0.5124 - val_loss: 0.6875 - val_acc: 0.5566Epoch 2/10157/157 [==============================] - 28s
…
flatten，其实我想写成“压”、“降”之类的，这才是flatten的本意，但标准的中文翻译是展平)到 1D 的。 然后后面的两个 Dense 层就行我们在第二章做的那种，最后得到一个 10 路的分类。</p><p>最后，看一下模型结构：</p><figure class="highlight python"><table><tr><td class="gutter"><pre><span class="line">1</span><br></pre></td><td class="code"><pre><span class="line">model.summary()</span><br></pre></td></tr></table></figure><pre><code>Model: &quot;sequential_1&quot;_________________________________________________________________Layer (type)                 Output Shape              Param #   =================================================================conv2d_3 (Conv2D)            (None, 26, 26, 32)        320       _________________________________________________________________max_pooling2d_2 (MaxPooling2 (None, 13, 13, 32)        0         _________________________________________________________________conv2d_4 (Conv2D)            (None, 11, 11, 64)        18496     _________________________________________________________________max_pooling2d_3 (MaxPooling2 (None, 5, 5, 64)          0         _________________________________________________________________conv2d_5 (Conv2D)            (None, 3, 3, 64)          36928     _________________________________________________________________flatten_1 (Flatten)          (None, 576)               0         _________________________________________________________________dense_2 (Dense)              (None, 64)                36928     _________________________________________________________________dense_3 (Dense)              (None, 10)                650       =================================================================Total params: 93,322Trainable params: 93,322Non-trainable params: 0_________________________________________________________________</code></pre><p>好了，网络就建成这样了，还是很简单的，接下来就训练它了，大致和之前第二章里的是一样的（但注意reshape的形状不一样）：</p><figure class="highlight python"><table><tr><td class="gutter"><pre><span class="line">1</span><br><span class="lin
…
n>, activation=<span class="string">&#x27;sigmoid&#x27;</span>))</span><br></pre></td></tr></table></figure><p>看一下网络的结构：</p><figure class="highlight python"><table><tr><td class="gutter"><pre><span class="line">1</span><br></pre></td><td class="code"><pre><span class="line">model.summary()</span><br></pre></td></tr></table></figure><pre><code>Model: &quot;sequential_4&quot;_________________________________________________________________Layer (type)                 Output Shape              Param #   =================================================================conv2d_16 (Conv2D)           (None, 148, 148, 32)      896       _________________________________________________________________max_pooling2d_16 (MaxPooling (None, 74, 74, 32)        0         _________________________________________________________________conv2d_17 (Conv2D)           (None, 72, 72, 64)        18496     _________________________________________________________________max_pooling2d_17 (MaxPooling (None, 36, 36, 64)        0         _________________________________________________________________conv2d_18 (Conv2D)           (None, 34, 34, 128)       73856     _________________________________________________________________max_pooling2d_18 (MaxPooling (None, 17, 17, 128)       0         _________________________________________________________________conv2d_19 (Conv2D)           (None, 15, 15, 128)       147584    _________________________________________________________________max_pooling2d_19 (MaxPooling (None, 7, 7, 128)         0         _________________________________________________________________flatten_4 (Flatten)          (None, 6272)              0         _________________________________________________________________dense_8 (Dense)              (None, 512)               3211776   _________________________________________________________________dense_9 (Dense)              (None, 1)                 513       =================================================================Total params: 3,453,121Trainable params: 3,453,121Non-trainable params: 0_________________________________________________________________</code></pre><p>然后就要编译这个网络了，做二分类嘛，所以损失函数用 binary crossentropy（二元交叉熵），优化器还是用 RMSprop (我们之前都是写 <code>optimizer=&#39;rmsprop&#39;</code>，这次要传点参数，所以用 <code>optimizers.RMSprop</code> 实例)：</p><fig
…
gure class="highlight python"><table><tr><td class="gutter"><pre><span class="line">1</span><br></pre></td><td class="code"><pre><span class="line">conv_base.summary()</span><br></pre></td></tr></table></figure><pre><code>Model: &quot;vgg16&quot;_________________________________________________________________Layer (type)                 Output Shape              Param #   =================================================================input_1 (InputLayer)         [(None, 150, 150, 3)]     0         _________________________________________________________________block1_conv1 (Conv2D)        (None, 150, 150, 64)      1792      _________________________________________________________________block1_conv2 (Conv2D)        (None, 150, 150, 64)      36928     _________________________________________________________________block1_pool (MaxPooling2D)   (None, 75, 75, 64)        0         _________________________________________________________________block2_conv1 (Conv2D)        (None, 75, 75, 128)       73856     _________________________________________________________________block2_conv2 (Conv2D)        (None, 75, 75, 128)       147584    _________________________________________________________________block2_pool (MaxPooling2D)   (None, 37, 37, 128)       0         _________________________________________________________________block3_conv1 (Conv2D)        (None, 37, 37, 256)       295168    _________________________________________________________________block3_conv2 (Conv2D)        (None, 37, 37, 256)       590080    _________________________________________________________________block3_conv3 (Conv2D)        (None, 37, 37, 256)       590080    _________________________________________________________________block3_pool (MaxPooling2D)   (None, 18, 18, 256)       0         _________________________________________________________________block4_conv1 (Conv2D)        (None, 18, 18, 512)       1180160   _________________________________________________________________block4_conv2 (Conv2D)        (None, 18, 18, 512)       2359808   _________________________________________________________________block4_conv3 (Conv2D)        (None, 18, 18, 512)       2359808   _________________________________________________________________block4_pool (MaxPooling2D)   (None, 9, 9, 512)         0         _________________________________________________________________block5_conv1 (Conv2D)        (None, 9, 9, 512)         2359808   _________________________________________________________________block5_conv2 (Conv2D)        (None, 9, 9, 512)         2359808   _________________________________________________________________block5_conv3 (Conv2D)        (None, 9, 9, 512)         2359808   _________________________________________________________________block5_pool (MaxPooling2D)   (None, 4, 4, 512)         0         =================================================================Total params: 14,714,688Trainable params: 14,714,688Non-trainable params: 0_________________________________________________________________</code></pre><p>注意，最前面的输入已经调成了我们希望的<code>(150, 150, 3)</code>，最后的输出是<code>(4, 4, 512)</code>，在后面我们要连上我们自己的分类器。有两种办法：</p><ol><li>在这个卷积基上跑我们现在的数据集，然后把结果放到个 Numpy 数组里面，保存到磁盘，然后以这个数组为输入，扔到个密
…
ow.keras.models <span class="keyword">import</span> load_model</span><br><span class="line"></span><br><span class="line">model = load_model(<span class="string">&#x27;/Volumes/WD/Files/dataset/dogs-vs-cats/cats_and_dogs_small_2.h5&#x27;</span>)</span><br><span class="line">model.summary()</span><br></pre></td></tr></table></figure><pre><code>Model: &quot;sequential_5&quot;_________________________________________________________________Layer (type)                 Output Shape              Param #   =================================================================conv2d_20 (Conv2D)           (None, 148, 148, 32)      896       _________________________________________________________________max_pooling2d_20 (MaxPooling (None, 74, 74, 32)        0         _________________________________________________________________conv2d_21 (Conv2D)           (None, 72, 72, 64)        18496     _________________________________________________________________max_pooling2d_21 (MaxPooling (None, 36, 36, 64)        0         _________________________________________________________________conv2d_22 (Conv2D)           (None, 34, 34, 128)       73856     _________________________________________________________________max_pooling2d_22 (MaxPooling (None, 17, 17, 128)       0         _________________________________________________________________conv2d_23 (Conv2D)           (None, 15, 15, 128)       147584    _________________________________________________________________max_pooling2d_23 (MaxPooling (None, 7, 7, 128)         0         _________________________________________________________________flatten_5 (Flatten)          (None, 6272)              0         _________________________________________________________________dropout (Dropout)            (None, 6272)              0         _________________________________________________________________dense_10 (Dense)             (None, 512)               3211776   _________________________________________________________________dense_11 (Dense)             (None, 1)                 513       =================================================================Total params: 3,453,121Trainable params: 3,453,121Non-trainable params: 0_________________________________________________________________</code></pre><p>然后我们找一张训练的时候网络没见过的图片：</p><figure class="highlight python"><table><tr><td class="gutter"><pre><span class="line">1</span><br><span class="line">2</span><br><span class="line">
…
><figure class="highlight python"><table><tr><td class="gutter"><pre><span class="line">1</span><br></pre></td><td class="code"><pre><span class="line">model.summary()</span><br></pre></td></tr></table></figure><pre><code>Model: &quot;vgg16&quot;_________________________________________________________________Layer (type)                 Output Shape              Param #   =================================================================input_1 (InputLayer)         [(None, 224, 224, 3)]     0         _________________________________________________________________block1_conv1 (Conv2D)        (None, 224, 224, 64)      1792      _________________________________________________________________block1_conv2 (Conv2D)        (None, 224, 224, 64)      36928     _________________________________________________________________block1_pool (MaxPooling2D)   (None, 112, 112, 64)      0         _________________________________________________________________block2_conv1 (Conv2D)        (None, 112, 112, 128)     73856     _________________________________________________________________block2_conv2 (Conv2D)        (None, 112, 112, 128)     147584    _________________________________________________________________block2_pool (MaxPooling2D)   (None, 56, 56, 128)       0         _________________________________________________________________block3_conv1 (Conv2D)        (None, 56, 56, 256)       295168    _________________________________________________________________block3_conv2 (Conv2D)        (None, 56, 56, 256)       590080    _________________________________________________________________block3_conv3 (Conv2D)        (None, 56, 56, 256)       590080    _________________________________________________________________block3_pool (MaxPooling2D)   (None, 28, 28, 256)       0         _________________________________________________________________block4_conv1 (Conv2D)        (None, 28, 28, 512)       1180160   _________________________________________________________________block4_conv2 (Conv2D)        (None, 28, 28, 512)       2359808   _________________________________________________________________block4_conv3 (Conv2D)        (None, 28, 28, 512)       2359808   _________________________________________________________________block4_pool (MaxPooling2D)   (None, 14, 14, 512)       0         _________________________________________________________________block5_conv1 (Conv2D)        (None, 14, 14, 512)       2359808   _________________________________________________________________block5_conv2 (Conv2D)        (None, 14, 14, 512)       2359808   _________________________________________________________________block5_conv3 (Conv2D)        (None, 14, 14, 512)       2359808   _________________________________________________________________block5_pool (MaxPooling2D)   (None, 7, 7, 512)         0         _________________________________________________________________flatten (Flatten)            (None, 25088)             0         _________________________________________________________________fc1 (Dense)                  (None, 4096)              102764544 _________________________________________________________________fc2 (Dense)                  (None, 4096)              16781312  _________________________________________________________________predictions (Dense)          (None, 1000)              4097000   =================================================================Total params: 138,357,544Trainable params: 138,357,544Non-trainable params: 0_________________________________________________________________</code></pre><p>然后我们照一张用来测试的图片：</p><p><img src="https://tva1.sinaimg.cn/large/007S8ZIlgy1gh83vzik31j30oz0goq7t.jpg" alt="creative_commons_elephant"></p><p>这是两只亚洲象🐘哦，把这个图片处理成 VGG16 模型需要的样子：</
…
